Experiment 6 Opinion forming Chatbot/bert_data.pth (torch, 15063 bytes, 6 tensors)

l1.weight f4 [8, 384]
00000000: ff2f 8ebe 3082 f03e 7f5c e43e e2fc ef3e
00000010: bf82 803e 2428 bcbd e22c 0a3f e82b 02be
00000020: b057 0c3d 5ba6 a7be 0847 193e c93c 5abe
00000030: fa19 a1be 5706 99be 37ce fa3e a05c 573d
00000040: b058 8fbe cf41 183c ee84 e8be 1b58 eabd
00000050: 981f f4be 8954 5bbe 853f 9bbe e49d f43e
00000060: d7b5 cfbe e3b9 983e 5bc4 e03e 6385 8c3e
00000070: 12c7 45be 871e d7be eb67 203e c51a 89bc
00000080: 916d e03e 3b88 efbe f35d d93e 450b 093e
00000090: 21d0 79be 6a5e 07bf 2fb6 5cbe 194c 23be
000000a0: bb24 a23e 9750 b9be 82b3 9cbe da7f 78bd
000000b0: 304c af3e 99be cdbe a4d2 c23d 2e4c 7fbe
000000c0: 7dd4 b03e f1a4 b63e 10f5 ba3d 5a67 aabe
000000d0: ff6c cabe 44a8 d93e f01b 053f c240 0ebe
000000e0: cc57 01bc 4cbb bebd c904 ea3e f456 cebe
000000f0: 4e4b 143e fbf8 4dbe f85a d0be 78be a33e
00000100: 97f3 0abe 0c97 463d 2352 8fbe 2117 a23e
00000110: ae01 93be 7454 723e aaa6 a4be ea52 abbe
00000120: 9690 d3bd 5cbc 51be 700b 8ebe 84ff 50be
00000130: 72e2 443e d122 dfbe a24e 703d d818 c13e
00000140: 0f4e 81bd f63c ab3d ec7f 12be c320 a6be
00000150: 23fc c9be 6cf5 4c3e 99cd 563e ee0b 4d3e
00000160: 2f35 afbd eb15 36bb 9217 6ebe 45f6 e83e
00000170: 2a93 a83e c680 06bf c9dd a5bd 2240 48be
00000180: 50c3 db3e 0bfb 9a3d 6436 abbe 8b8e d33e
00000190: 949d ae3e 2a94 9f3e f39c 9b3c d6fa 953e
000001a0: df1b 9fbe bb3a 90bc eed6 6dbe be62 dd3e
000001b0: d197 c73d b4d3 263e 0df7 bdbe 277d 423e
000001c0: 35e2 c3be 3a8b c43d 1f75 a73e 6103 043e
000001d0: 0e74 99bd 2fe5 053f 4027 183e 1dac 193c
000001e0: 9a15 d13e 86a6 bebe 3a9f c53e 676e f1bd
000001f0: 511c 4ebe 0639 74bd 33f6 a3be 70e3 01bb
00000200: 6ccf d63e 3025 5dbe 7d6d b8bd 9cf8 a73e
00000210: 7bec 21be 2d47 533e 2420 f13e 3d48 6ebe
00000220: ef60 c63d 7728 9a3e d298 123f 95e6 db3e
00000230: 5d1e afbe 2af9 673e 299f aa3e 80df e5bd
00000240: 68f0 9a3c 39b4 c83e 78fb cb3d b777 06be
00000250: a4ad 69be ddb2 c8bc 5f16 ecbd f651 053f
00000260: 83cc c33e cab6 2d3d 79e9 e03e 9010 c5be
00000270: 03d1 873e 39bc b33e c75d df3d cf05 9ebe
00000280: 4a78 233e 77b3 423e 9258 e0be fe1f a43c
00000290: cef6 8bbe 01d9 a1be 524d 223d 9fd6 09bf
000002a0: afe2 c8bd 4929 a43e a48b 92be 2d82 cdbe
000002b0: 830b ab3e 1439 c8be 3e66 233f c532 de3e
000002c0: 01f7 8ebe add3 0e3e 937d 8abe f2de 5fbe
000002d0: 9e48 1ebf cb24 b3be dcba 11bf dc15 b7be
000002e0: 2d1d e5be bab6 a33e 6c4f 483e 4e71 3f3d
000002f0: fd43 013e 78e9 a63e aa4a ecbd 8cea c2be
00000300: d904 bebe 492d a23e ce00 303e 9043 f5be
00000310: ecd0 c93e 1256 b0be 248c 08bf e8a9 503e
00000320: 3d95 b13e 8293 a63e 4307 5b3e 8e06 b83e
00000330: 78b3 903e 9dfb bc3e 1b8c af3d 006f 1abe
00000340: 1edc c83c cd2c 4d3d cb12 0dbe cb97 a83e
00000350: 4d29 513e 0264 a73e a35e a03e 3e78 99be
00000360: a8aa 873e 63df 88be f149 b1be c095 e43e
00000370: 55e6 2f3e c40d 2d3b 4eac 05bf f28a d2bc
00000380: f621 873e aa7d d3be ea06 8cbe 5760 9a3c
00000390: bcdb 67be 66ef 56be cf55 843e 80b3 403d
000003a0: c045 09bf 1d52 b7bc 4b4b 833d 3bd7 92bd
000003b0: 8218 d33e 2e4f c53e 3d1a d03c c343 df3e
000003c0: 5b0b c83e 2812 a33d 9324 343e 9a82 c5be
000003d0: 8e58 07bf e1af c73e c72b f83d 2a70 0cbb
000003e0: cf8a d9bb a744 763d b81f d5bd 2fb2 1cbb
000003f0: de36 c7be a0b2 1cbe 6cdd f33e c6d4 d9bd
-0.27770993 0.46974325 0.4460182 0.46872622 0.2509975 -0.09187344 0.53974736 -0.12712061
0.034263313 -0.32744107 0.14968503 -0.2131225 -0.3146513 -0.2988765 0.48985454 0.05257857
-0.2799735 0.009293034 -0.45413917 -0.11442586 -0.47680354 -0.21418966 -0.303219 0.4777671
-0.4056842 0.2982932 0.43899807 0.27445516 -0.1931422 -0.42015478 0.15664642 -0.016736398
0.43833593 -0.46783623 0.4245449 0.13383205 -0.24395801 -0.5287844 -0.21553873 -0.15946998
0.31668648 -0.36194298 -0.30605704 -0.060668804 0.34237814 -0.40184477 0.09512833 -0.24931404
0.34537116 0.35672715 0.09128773 -0.33281976 -0.39536282 0.4251119 0.51995754 -0.1389189
-0.007894468 -0.09313068 0.45706776 -0.40300715 0.14481851 -0.2011451 -0.40694404 0.31981254
-0.13569485 0.048483893 -0.27992353 0.3165827 -0.2871222 0.23665029 -0.32158405 -0.33461696
-0.10330312 -0.2048201 -0.277431 -0.20409971 0.19227007 -0.4358125 0.05866874 0.37714267
-0.063137166 0.08361237 -0.14306611 -0.3244687 -0.39450178 0.20015496 0.20976867 0.20024082
-0.08555066 -0.002778406 -0.23251179 0.4550039 0.32924777 -0.5254024 -0.08098943 -0.19555715
0.4292245 0.07567414 -0.33439934 0.4131969 0.34104598 0.31167728 0.018995738 0.29292935
-0.3107595 -0.01760613 -0.2322652 0.43239397 0.097457536 0.16291696 -0.37102547 0.18993054
-0.3825852 0.09596868 0.32706544 0.12891914 -0.07492839 0.5230283 0.14858723 0.009379414
0.40836793 -0.37236422 0.38598043 -0.11788636 -0.2012799 -0.059624694 -0.32023773 -0.0019819401
0.41955125 -0.21596217 -0.09005258 0.3280686 -0.15812866 0.2063262 0.47094834 -0.23269744
0.09686457 0.30108997 0.57264435 0.42949358 -0.34202853 0.22653642 0.33324555 -0.1122427
0.018913463 0.392 0.09960073 -0.13131605 -0.22820145 -0.024499351 -0.115277044 0.5207819
0.38241968 0.04241065 0.43928126 -0.384892 0.2652665 0.3510454 0.109065585 -0.30863807
0.15963855 0.19013773 -0.43817574 0.020034786 -0.27336735 -0.31610873 0.03962452 -0.5384311
-0.098088615 0.32062748 -0.28622162 -0.4013838 0.3340722 -0.39106047 0.63827884 0.4339811
-0.27922824 0.13947935 -0.2704893 -0.2186239 -0.61829555 -0.34989008 -0.5692575 -0.35758865
-0.44748822 0.31975347 0.19561547 0.046738915 0.12623592 0.32599998 -0.115376785 -0.3806957
-0.37113073 0.31675175 0.17187807 -0.4790311 0.39417207 -0.34440666 -0.5333884 0.20377314
0.34684172 0.32534415 0.21389489 0.359425 0.28261924 0.36910716 0.08571645 -0.15081406
0.024519023 0.050091553 -0.137767 0.3292831 0.20425911 0.32693487 0.31322202 -0.2997455
0.26497388 -0.2673293 -0.34626725 0.446455 0.17177708 0.002640591 -0.5221604 -0.02570102
0.26393098 -0.41306812 -0.27349025 0.018844767 -0.22642416 -0.20989761 0.25846717 0.047046185
-0.53622055 -0.022378022 0.06410845 -0.07169958 0.41229635 0.38536972 0.025403136 0.43606386
0.39071164 0.079624474 0.17592077 -0.38576204 -0.528695 0.39001372 0.12117725 -0.002142916
-0.0066388617 0.060124066 -0.104064405 -0.0023909917 -0.38909048 -0.15302515 0.4762987 -0.106362864

l1.bias f4 [8]
00000000: 646e dc3e 797f ac3e 5d64 ae3e c255 eb3e
00000010: 5426 623e 89ef 8a3e 07ea d73e 0146 ed3e
0.4305297 0.33691004 0.34060946 0.45963866 0.22084934 0.27135876 0.42170736 0.4634247

l2.weight f4 [8, 8]
00000000: 1199 e53e 4924 59bf 7ecb 42bf a5ad 373f
00000010: 2875 313f 6807 71be 2488 ef3d 0038 2a3f
00000020: b618 463f 2bf9 78be 4385 b13e a323 e5be
00000030: edff 06bf d7b3 23bf 45c5 0ebf da5e 2c3f
00000040: 8324 b9be 2a20 683f e719 8a3e 4037 8a3e
00000050: 469e 403f 379d 823e 92a4 483f d90a 243d
00000060: 5231 373f 5b32 abbb 0e44 833f de7c 61be
00000070: f7d6 20bf 5e1b e1be 373b 803f 71d1 e93e
00000080: 4b82 a9be 30c7 593e 728e 5f3e d7a8 55be
00000090: f37a 90be 9f81 883e 02c0 aabe 103c a7be
000000a0: b80f 943f 5823 8e3e 49e6 50be 2828 513d
000000b0: 9721 83be 32f4 283f f8e4 0ebf 7dd7 ea3e
000000c0: 1a71 ae3e 1bc9 48be be45 04bf 8f71 b03e
000000d0: 088d 1bbf c182 c1be 4d29 313e 3d0c ec3e
000000e0: fd0f 03bf 652e f53e c9b4 25be b197 2f3f
000000f0: c655 30bf df9a 27be 9ab1 243f 69c6 7e3f
0.44843343 -0.8482099 -0.76091754 0.71749336 0.6931939 -0.23537982 0.11695889 0.664917
0.77381456 -0.243138 0.34671983 -0.4475375 -0.5273426 -0.6394629 -0.5576976 0.6733223
-0.3616067 0.9067408 0.26972887 0.26995277 0.75241506 0.2551057 0.78376114 0.040049408
0.7155963 -0.0052245087 1.0255144 -0.2202029 -0.6282801 -0.43966192 1.0018071 0.45667604
-0.33107218 0.2126739 0.21831682 -0.20865189 -0.28218803 0.26661393 -0.33349615 -0.32663012
1.1567297 0.2776134 -0.20400347 0.051063687 -0.25611565 0.6599761 -0.5581813 0.4586753
0.34070665 -0.19607966 -0.5166892 0.34461638 -0.6076207 -0.3779507 0.17300911 0.46103087
-0.5119627 0.4788696 -0.16182245 0.6859084 -0.6888088 -0.16367672 0.643335 0.995215

l2.bias f4 [8]
00000000: b66e 8f3e bdd6 943e 5cfc 5a3d 12c8 253e
00000010: b6c0 4ebe d841 053f f2e3 83be ce63 7a3e
0.28014153 0.29070082 0.053463325 0.16189602 -0.20190701 0.52053595 -0.25759846 0.24452135

l3.weight f4 [7, 8]
00000000: be2b 603e b461 87be 67f6 3dbf 5f23 473e
00000010: 37b6 0bbe 4d21 2dbd 384c 6f3f 1c73 743e
00000020: 20d8 243f 552a 01bf 2a63 79be aa45 3fbf
00000030: c822 5e3e 68a8 033f 5330 36bf 2f45 24bf
00000040: 8e9f 79bf f53e 00bf 6864 b13e 35dd 83bf
00000050: 11a3 debd 9cca f93e 4b43 c5be 8e72 1b3f
00000060: 6deb 31bf 12f9 243f bc39 7bbf 7692 bf3e
00000070: 9ad2 4f3d b2ee f93e 9bb8 30bf d42b 26bf
00000080: ec97 29bf 7001 2ebf fdc9 073f e149 2e3f
00000090: aff7 d3bd ffb3 bfbe 1258 09bf d74e 8fbf
000000a0: 3a75 1ebf 3fd0 22bf 4fb0 883d 8d80 9e3e
000000b0: 09ef 99be 21f1 69bf 90a5 abbe 70df 2a3f
000000c0: 17f2 043f 5024 01bf 9502 103f 9a96 76bf
000000d0: 5066 9a3e 4339 6bbf ef7a 23be 8a09 b43e
0.21891686 -0.2644173 -0.74204105 0.19447087 -0.13643728 -0.042268086 0.93475676 0.23872036
0.6439228 -0.5045522 -0.24354234 -0.74715674 0.21692955 0.5142884 -0.71167487 -0.64168066
-0.97509086 -0.50096065 0.34646916 -1.0301882 -0.10870946 0.4878739 -0.38527903 0.6072167
-0.69499856 0.6444255 -0.9813497 0.37416428 0.050737955 0.48814923 -0.69031686 -0.64910626
-0.6624744 -0.67970943 0.53042585 0.6808148 -0.10349976 -0.37442014 -0.5365001 -1.1195935
-0.61897624 -0.6359901 0.06674253 0.3095745 -0.30065182 -0.9138356 -0.33524752 0.6674719
0.519319 -0.50446033 0.5625394 -0.9632355 0.30156183 -0.9188425 -0.15964864 0.35163528

l3.bias f4 [7]
00000000: ca13 60bd 1f2f 513e a037 003f 72cf eb3a
00000010: c463 cc3e 5cfd a2be 5544 41be
-0.054706372 0.20428132 0.50084877 0.0017990901 0.39919865 -0.31833923 -0.18873723
