Experiment 6 Opinion forming Chatbot/bert_data_new_intent.pth (torch, 18455 bytes, 6 tensors)

l1.weight f4 [8, 384]
0	0x3caf59f7	0.021405203
1	0x3e9330c0	0.2874813
2	0x3eb90f16	0.36144322
3	0x3f793ba5	0.97356635
4	0x3f1f515e	0.6223353
5	0x3f1159c9	0.56777626
6	0x3ef77f30	0.48339224
7	0x3eba9c2f	0.36447284
8	0xbf002629	-0.5005823
9	0x3f9fa3a4	1.2471814
10	0xbd021b4a	-0.031764306
11	0x3e8cef1a	0.2752617
12	0xbe29ba00	-0.1657486
13	0xbe8c9dd4	-0.27464163
14	0x3e8af9a7	0.27143595
15	0x3f2bcb9a	0.67107546
16	0xbf1e1939	-0.61757237
17	0xbfcc4e9b	-1.5961488
18	0xbedac468	-0.4272797
19	0xbf0a9f64	-0.5414946
20	0xbea066b3	-0.31328353
21	0x3eb0ebbc	0.3455485
22	0x3f941578	1.1569052
23	0x3f187c9e	0.5956515
24	0x3e8bb02d	0.2728285
25	0x3f4278d0	0.75965595
26	0x3f411e00	0.754364
27	0xbe471637	-0.19442068
28	0x3f1764eb	0.59138364
29	0xbd947ff4	-0.072509676
30	0xbe674886	-0.22586259
31	0x3f0b602a	0.5444361
32	0x3f491d9d	0.7856081
33	0xbf530918	-0.8243575
34	0x3e0e0f9d	0.13873143
35	0x3f2de4e3	0.6792738
36	0xb9b9cff9	-0.000354409
37	0xbe70ec12	-0.23527554
38	0x3ee7230c	0.45143926
39	0xbd933ffd	-0.07189939
40	0x3ee12aa7	0.43977854
41	0xbdd07d86	-0.10180192
42	0x3ee02148	0.43775392
43	0x3e96be56	0.2944209
44	0x3f2a0574	0.6641457
45	0xbe25f499	-0.16206588
46	0x3f471c2e	0.77777374
47	0x3e972dc0	0.29527092
48	0x3e41a9be	0.18912408
49	0xbf5de899	-0.8668304
50	0x3e0a8f36	0.13531193
51	0xbef52b18	-0.4788444
52	0xbee404d5	-0.44534937
53	0x3e805c28	0.2507031
54	0x3f6cef8f	0.9255304
55	0xbec2357a	-0.37931424
56	0x3e178d1c	0.14799923
57	0x3f11c514	0.5694134
58	0x3ea029b0	0.31281805
59	0x3f1c66f8	0.6109462
60	0x3f41e804	0.7574465
61	0xbf259c86	-0.6469196
62	0xbf129485	-0.5725787
63	0xbfb86020	-1.4404335
64	0x3ebdb5f1	0.37052873
65	0x3e17e726	0.1483427
66	0xbf85a2ef	-1.0440348
67	0xbdae9e76	-0.08526318
68	0xbf020205	-0.5078433
69	0x3f067507	0.5252232
70	0x3d3ae1dc	0.045625553
71	0x3d1940be	0.03741526
72	0xbf21b5ab	-0.6316783
73	0x3ed21946	0.41034907
74	0xbab5da3d	-0.0013874244
75	0xbf8e110e	-1.1098955
76	0x3fa3e374	1.2803788
77	0xbed487bd	-0.4150981
78	0x3e7b42f4	0.2453726
79	0x3eb795fd	0.3585662
80	0x3e4809f0	0.19535041
81	0xbe1ad21b	-0.15119211
82	0xbf905f84	-1.1279149
83	0xbe2c6f28	-0.16839278
84	0xbe41dc40	-0.18931675
85	0x3d6a99c1	0.057275537
86	0x3f046012	0.5170909
87	0x3e86e122	0.26343638
88	0x3f2136b2	0.62974083
89	0xbf632bd6	-0.88738763
90	0xbfa9cf31	-1.3266355
91	0xbe20daa2	-0.15708402
92	0x3e90abf2	0.28256184
93	0xbf14e7d8	-0.58166265
94	0xbe0d598a	-0.13803688
95	0xbf8e02a6	-1.1094558
96	0x3f0576bb	0.52134293
97	0xbda9991b	-0.08281156
98	0xbf93602a	-1.1513722
99	0x3f972cec	1.1810584
100	0x3f469a0d	0.7757881
101	0x3e41bccb	0.18919675
102	0x3ed3fe2e	0.4140486
103	0x3f7eab6a	0.9948031
104	0x3f046515	0.5171674
105	0x3d42e865	0.04758491
106	0xbfbb07d6	-1.4611766
107	0x3f414159	0.7549034
108	0x3f11f6c7	0.5701718
109	0x3d7ddfc4	0.061980978
110	0x3e60bc48	0.21946824
111	0xbda7eb48	-0.08199173
112	0xbedfdf50	-0.4372506
113	0x3fa91ba0	1.3211555
114	0x3ef0bacb	0.47017512
115	0xbf705da4	-0.93892884
116	0xbed8c484	-0.4233743
117	0x3eb83ef0	0.35985518
118	0xbe6efca2	-0.2333856
119	0x3f484efb	0.78245515
120	0xbe3b334f	-0.18281291
121	0xbf0a2230	-0.53958416
122	0xbf356f41	-0.70872885
123	0xbd230a00	-0.03980446
124	0xbd8a9827	-0.06767302
125	0xbf3c2a81	-0.73502356
126	0xbe7f1a5f	-0.24912404
127	0xbc5b509c	-0.013385918
128	0x3f396078	0.72412825
129	0xbe80c18b	-0.25147662
130	0x3f1d3f17	0.6142439
131	0x3fa50358	1.2891645
132	0xbe889175	-0.26673475
133	0x3ef8b042	0.48571974
134	0xbe8f840d	-0.28030434
135	0xbec3fb5b	-0.38277707
136	0xbf8e7c7e	-1.1131742
137	0x3e87ecce	0.26547855
138	0x3f62ab11	0.88542277
139	0x3f05cc30	0.5226469
140	0xbe3b5c45	-0.18296917
141	0x3ef17bad	0.4716467
142	0x3f363863	0.7117979
143	0xbece274c	-0.40264356
144	0xbf07477d	-0.5284346
145	0x3f191e0d	0.5981148
146	0xbea25817	-0.31707832
147	0x3e4f1a5b	0.20224898
148	0xbf370f8a	-0.71508086
149	0x3e326533	0.17421417
150	0x3e62ef4c	0.22161597
151	0x3e046347	0.12928496
152	0x3ee66cd7	0.45004913
153	0x3db73754	0.089461
154	0x3f81d5b7	1.0143346
155	0x3d9ead02	0.07747842
156	0x3fcc3495	1.5953547
157	0x3eb8e17a	0.36109525
158	0x3e9177c2	0.2841168
159	0x3eaf1158	0.3419292
160	0xbee04130	-0.43799734
161	0xbdf4fac3	-0.119618915
162	0x3d8928fd	0.06697271
163	0xbfa1713f	-1.2612685
164	0xbe876d14	-0.26450408
165	0xbfbb63b9	-1.4639808
166	0x3e181551	0.14851882
167	0xbf546fb8	-0.8298297
168	0xbf513f4e	-0.8173722
169	0x3e478bdf	0.1948695
170	0xbe995fc1	-0.29955867
171	0x3e32e84b	0.17471425
172	0x3e4d40f4	0.20044309
173	0xbe2e0bb6	-0.16996655
174	0x3f3bdab5	0.73380595
175	0x3f2b7d39	0.6698795
176	0xbf15053d	-0.5821112
177	0xbdc07da5	-0.09398965
178	0xbea57fbf	-0.32324025
179	0x3f66b427	0.9011864
180	0xbe398e0b	-0.18120591
181	0xbee38f91	-0.4444547
182	0xbbcbc396	-0.006218384
183	0xbf4ae5ac	-0.792567
184	0xbf2702ec	-0.65238833
185	0x3dda0462	0.10645367
186	0x3e56acc9	0.2096435
187	0xbdfdd9d9	-0.12395067
188	0xbd97302e	-0.073822364
189	0x3f5f5e9b	0.8725373
190	0x3e863ffb	0.26220688
191	0x3e546fad	0.20745726
192	0xbf1582de	-0.5840281
193	0x3f07d8e7	0.5306534
194	0xbe9b8734	-0.3037659
195	0x3f24b11a	0.64332736
196	0x3ec8c0c4	0.39209569
197	0x3e213d0a	0.15745941
198	0x3f186184	0.595238
199	0xbd8c3022	-0.06845118
200	0xbeb3057a	-0.34965116
201	0xbececfd4	-0.40392935
202	0x3f15d9d6	0.58535516
203	0x3e8b67a6	0.27227515
204	0x3f1f5f3e	0.62254703
205	0xbf380ea8	-0.71897364
206	0xbf68707f	-0.90796655
207	0xbea96e9a	-0.33092195
208	0xbec9daaa	-0.3942464
209	0xbefc13c0	-0.49233818
210	0xbe14d3b4	-0.14533883
211	0xbda9df30	-0.08294523
212	0xbe88026e	-0.26564354
213	0x3f3f9760	0.74840355
214	0xbf4aa840	-0.7916298
215	0xbf31fa62	-0.6952268
216	0xbd06c1eb	-0.03289978
217	0x3cb65839	0.022258865
218	0xbf3d0961	-0.73842436
219	0x3e893a62	0.26802355
220	0x3f66fe94	0.90232205
221	0xbf0b496d	-0.54408914
222	0xbf69f9b6	-0.91396654
223	0x3d1962ba	0.03744767
224	0x3f4db0e6	0.8034805
225	0x3e4e7ef2	0.20165613
226	0xbf073f5f	-0.5283107
227	0xbe9b1807	-0.3029177
228	0x3fd82e01	1.6889039
229	0xbf5ea8db	-0.86976403
230	0xbf1054aa	-0.5637919
231	0x3fab2550	1.3370762
232	0xbf334ab2	-0.7003585
233	0xbe9d9193	-0.30775127
234	0x3d291270	0.04127735
235	0xbe951d1b	-0.29123768
236	0x3ecc3c7e	0.39889902
237	0x3e524c19	0.20536841
238	0xbdeb612e	-0.11493145
239	0x3d8c34de	0.06846021
240	0x3f161f8d	0.5864189
241	0x3e86d811	0.2633672
242	0xbf17a6cd	-0.5923889
243	0x3c7f00ea	0.015564183
244	0xbecfd493	-0.4059187
245	0xbf375d78	-0.71626997
246	0xbf4fc924	-0.8116629
247	0x3df05c48	0.11736351
248	0x3ecde0c0	0.40210533
249	0x3f225c88	0.6342244
250	0x3e3a3f0f	0.18188117
251	0x3e84d81a	0.25946122
252	0xbf9a79d8	-1.2068434
253	0xbfb05294	-1.3775201
254	0x3e7ac1aa	0.2448794
255	0xbe0f251f	-0.13979004

l1.bias f4 [8]
0	0x3f36178b	0.71129674
1	0x3f74876d	0.95519143
2	0x3f10daa8	0.5658364
3	0x3f26873b	0.65050095
4	0x3f1822f7	0.5942835
5	0x3f002764	0.50060105
6	0xbd404f3a	-0.046950556
7	0x3f54bda1	0.8310185

l2.weight f4 [8, 8]
0	0x3fce533d	1.6119152
1	0x3fb30233	1.3985046
2	0xbf2a826d	-0.66605264
3	0xbf78c29a	-0.9717194
4	0xbf2c6a6a	-0.67349875
5	0xbf99033b	-1.1954111
6	0x3d4a9a6b	0.04946367
7	0x3fa2645e	1.268688
8	0x3f338245	0.7012065
9	0x3f436bd4	0.7633641
10	0x3e843627	0.25822565
11	0xbf74dc58	-0.9564872
12	0x3f9d7cca	1.2303708
13	0xbfc0a8bf	-1.5051497
14	0xbcaa5ec3	-0.020797139
15	0x3fa9764c	1.3239226
16	0x3fc7fedf	1.5624655
17	0x3eb4dd33	0.35325012
18	0xbfb73a6d	-1.4314705
19	0x3ef2a438	0.47390914
20	0x40472675	3.1117222
21	0x3f51785a	0.81824267
22	0xbe268194	-0.16260368
23	0x3e8ee47d	0.27908698
24	0xbf130973	-0.57436293
25	0xbf8e436d	-1.1114327
26	0x4028d24f	2.6378362
27	0x3f355a18	0.708406
28	0x3faea50d	1.364412
29	0xbd561f10	-0.052275717
30	0xbe209ea8	-0.15685523
31	0x4010b3ce	2.2609744
32	0xbe641e3a	-0.22277156
33	0x402e36e5	2.7221005
34	0x3fbd755a	1.4801438
35	0x3f3d8a74	0.7403939
36	0xbfe8ca3d	-1.8186718
37	0xbdf9b6d6	-0.12193076
38	0xbdac5d1d	-0.084161974
39	0x3f0b88ae	0.5450543
40	0x3ffbaa16	1.9661281
41	0x3f9dff9d	1.2343632
42	0xbec63d6e	-0.38718742
43	0xbf484f39	-0.78245884
44	0xbeb3f520	-0.35147953
45	0x4037c242	2.8712316
46	0x3e8e188b	0.277531
47	0xbd102a7c	-0.035196766
48	0x3f6daa9c	0.92838454
49	0x3f6e218b	0.9301993
50	0xbf270db7	-0.652553
51	0xbff0e92b	-1.8821157
52	0x3f12cc1a	0.57342684
53	0x3f821b0c	1.0164504
54	0x3e5600be	0.2089872
55	0x3e15c6c8	0.1462661
56	0xbe78a374	-0.24281102
57	0xbd885e71	-0.06658638
58	0x3e8f8854	0.28033698
59	0xbf21c710	-0.6319437
60	0xbf2f6126	-0.6850761
61	0xbf13e058	-0.57764196
62	0xbd3b50f0	-0.045731485
63	0x3ee49f5f	0.4465284

l2.bias f4 [8]
0	0x3e757d54	0.2397359
1	0x3e9c8a5f	0.3057432
2	0x3e932c40	0.28744698
3	0x3d450c05	0.048107166
4	0x3f7ef52f	0.9959287
5	0x3ed8ea79	0.42366388
6	0x3e0ab049	0.1354381
7	0xbe3b7f42	-0.18310264

l3.weight f4 [57, 8]
0	0xbdad025c	-0.08447716
1	0xbe64f2da	-0.22358266
2	0x3dd05407	0.10172277
3	0xc0170554	-2.3597002
4	0xbfc8209a	-1.5634949
5	0x3f1cc55b	0.6123864
6	0x3ef86616	0.48515385
7	0xbd4eee98	-0.05052051
8	0x3e9bf200	0.3045807
9	0x3dbad460	0.091225386
10	0x3d04ad41	0.03239179
11	0xbf801b6e	-1.0008371
12	0xc012db36	-2.2946296
13	0x3e36164f	0.17781948
14	0x3d7c37f9	0.061576817
15	0x3eb3e65f	0.35136697
16	0x3f2d6d48	0.67744875
17	0x3f0a4bec	0.540221
18	0xbe730b7a	-0.23734847
19	0xbf9af25e	-1.2105215
20	0xbef013f4	-0.46890223
21	0xbecb85ab	-0.39750418
22	0xbe201dc8	-0.1563636
23	0xbf922948	-1.1418848
24	0x3f119bbd	0.5687826
25	0xbd762fea	-0.06010429
26	0xbf1fb44a	-0.62384474
27	0xc0038789	-2.0551474
28	0xbe42efe5	-0.19036825
29	0x3e827c76	0.2548558
30	0x3ec53307	0.38515493
31	0xbf92d448	-1.1471033
32	0xbfb272e5	-1.3941313
33	0x3b6db148	0.0036268998
34	0x3eec65dd	0.46171466
35	0xbfa4c40b	-1.2872328
36	0xc003eea3	-2.0614402
37	0x3e8a2483	0.2698098
38	0x3d325367	0.04353657
39	0xbe55ed7f	-0.20891379
40	0x3e7005f9	0.23439778
41	0x3d2c9892	0.04213769
42	0xbda96ec7	-0.08273082
43	0xbf4a05cb	-0.7891509
44	0xbf6b30b7	-0.9187121
45	0x3ea2e9bf	0.3181896
46	0xbf41ab08	-0.756516
47	0xbf68da00	-0.9095764
48	0x3b95e63a	0.0045745643
49	0xbeb7aaeb	-0.35872588
50	0xbe9ae255	-0.30250803
51	0xbed05354	-0.40688574
52	0xbe779b86	-0.24180421
53	0x3e536c82	0.20646861
54	0xbf9a637c	-1.206161
55	0xbf99bc09	-1.2010509
56	0x3ef0470f	0.46929213
57	0x3e97381a	0.2953499
58	0xbed67c95	-0.41891924
59	0xbec75ad4	-0.38936484
60	0xbeff775f	-0.4989576
61	0xbc9d4cff	-0.019201754
62	0xbfc5ac88	-1.5443277
63	0xbfb44e40	-1.408638
64	0xbec2feed	-0.38085118
65	0xbea407be	-0.32037157
66	0xbe1a9c45	-0.15098675
67	0xbed975e6	-0.42472762
68	0xbeaca8c2	-0.33722502
69	0x3ecb1405	0.3966371
70	0xc05e9c8c	-3.4783049
71	0xbf0d4a1a	-0.55191195
72	0x3da18352	0.078863755
73	0xbd8deccf	-0.06929933
74	0xbebcccf9	-0.36875132
75	0xbc037266	-0.00802288
76	0xbf3a5842	-0.7279092
77	0xbcc966e7	-0.0245852
78	0xc01b5c59	-2.4275115
79	0xbf22f891	-0.6366053
80	0x3e7dbb93	0.24778585
81	0x3f3619d1	0.7113314
82	0x3e7bcb50	0.24589276
83	0xbf438f1d	-0.7639025
84	0xbfb03b58	-1.376811
85	0xbeb36533	-0.35038146
86	0xbffb6b2d	-1.9642082
87	0xbe922e9f	-0.28551194
88	0xc00a604d	-2.1621277
89	0xbf5f9f00	-0.8735199
90	0xbfcc372b	-1.5954336
91	0x3d6de1b6	0.058076583
92	0x3ec54b28	0.38533902
93	0x3ea462c2	0.32106596
94	0xc00bd50c	-2.1848783
95	0xbed9463d	-0.424364
96	0xc00cbd20	-2.1990433
97	0x3ee3476e	0.44390434
98	0xbf768d9b	-0.9630982
99	0x3ed24436	0.41067666
100	0xbe780261	-0.24219657
101	0xc004ec0f	-2.0769079
102	0xbe988e90	-0.29796267
103	0xbf0bf48f	-0.5467004
104	0xc0095c2f	-2.1462514
105	0xbfbd387a	-1.478286
106	0xc03cd9e1	-2.9507983
107	0x3f1f90d2	0.62330353
108	0x3f07f2c1	0.5310479
109	0xc01af55a	-2.421225
110	0xbe97f81a	-0.29681474
111	0xbf4160f4	-0.75538564
112	0xbfb78dc1	-1.4340135
113	0x3e9d890b	0.30768618
114	0xbdc462ec	-0.0958918
115	0xbe0cc414	-0.13746673
116	0xbf23b588	-0.6394887
117	0xbf2456f6	-0.6419519
118	0xc008e5ee	-2.1390338
119	0x3d822023	0.06353786
120	0xbff3ad0a	-1.9037182
121	0xbe251288	-0.1612035
122	0xbf09c952	-0.53822815
123	0x3dd2bb5f	0.102896444
124	0xbe98cea1	-0.29845145
125	0xbdf2da5b	-0.11858054
126	0xc01ae5fd	-2.4202874
127	0xbd9c44e8	-0.0763033
128	0xbefa9fb4	-0.4894997
129	0xbfedc3c3	-1.8575367
130	0xbf092095	-0.5356534
131	0x3eb83a30	0.35981894
132	0xbea68985	-0.32526794
133	0xbef5134e	-0.4786629
134	0xbf1e023e	-0.6172217
135	0xbed4202a	-0.4143079
136	0xbf3f3e39	-0.7470432
137	0xbfc19155	-1.5122477
138	0x3e6cc5f9	0.23122396
139	0x3dc45599	0.09586639
140	0xc002ee9d	-2.0458138
141	0xbfde384c	-1.736093
142	0xbf1aec6d	-0.6051701
143	0xbe3d6b08	-0.1849786
144	0xbfa8f11c	-1.3198581
145	0x3f3f7010	0.7478037
146	0xbd875e5d	-0.06609795
147	0xbd452107	-0.0481272
148	0xbff87609	-1.9411021
149	0xbfaf0053	-1.3671974
150	0xbf8ecdcf	-1.1156558
151	0xbead95b5	-0.3390328
152	0xbf84cf1d	-1.0375706
153	0xbfe6cf68	-1.8032045
154	0xbf9c390c	-1.2204909
155	0x3f349926	0.70546186
156	0xbc107413	-0.008816737
157	0xc00c8b4f	-2.1960027
158	0xbf2e2315	-0.6802228
159	0xbee606cb	-0.44927058
160	0xbf89cadc	-1.0765033
161	0xc014d129	-2.3252661
162	0xbe608e3f	-0.21929263
163	0xbe56e412	-0.2098544
164	0x3e14d100	0.14532852
165	0xbe55749c	-0.20845264
166	0xbfc1c689	-1.5138713
167	0x3ea93628	0.3304913
168	0xbf640fd2	-0.8908664
169	0xbfce342b	-1.610967
170	0x3e27ac0f	0.16374229
171	0xbff7bd7a	-1.9354699
172	0xbf11a295	-0.56888705
173	0x3f5cc832	0.86242974
174	0xbeb9dcc7	-0.36301252
175	0xbe713411	-0.23555018
176	0xbdf5ee9d	-0.120084025
177	0xbf5ebbe2	-0.87005436
178	0x3f0a89aa	0.5411631
179	0xc0542407	-3.314699
180	0xbb8dcb37	-0.0043272036
181	0x3e6efb16	0.23337969
182	0xc0184822	-2.3794026
183	0x3e39e88e	0.18155119
184	0xc00e7c56	-2.2263389
185	0xbfef46fe	-1.869354
186	0xbf17a9fc	-0.5924375
187	0xbf1695eb	-0.58822507
188	0x3e9d97a6	0.3077976
189	0x3f1833c4	0.5945399
190	0xc029a490	-2.650669
191	0x3e33358a	0.17500892
192	0x3eb7fd07	0.35935232
193	0xbe186835	-0.14883502
194	0x3e1707f6	0.1474913
195	0xbfc517d9	-1.5397903
196	0xbeb695d9	-0.356612
197	0x3e9faf1e	0.3118829
198	0xbf87571f	-1.0573462
199	0xbe3bdcde	-0.18345973
200	0xbd6f980c	-0.058494613
201	0x3c15729b	0.009121562
202	0xbefbe47a	-0.4919775
203	0xbe83fb33	-0.25777587
204	0x3e62ed3f	0.22160815
205	0xbf0408d8	-0.51575994
206	0xc0534774	-3.3012362
207	0xbf6d6332	-0.92729485
208	0xbfee2a48	-1.8606653
209	0xbe9f24dc	-0.3108281
210	0xbfab562b	-1.3385671
211	0x3e18cbe8	0.14921534
212	0x3f1561a2	0.583521
213	0xbfe89075	-1.8169085
214	0xbf3c64e1	-0.7359143
215	0xbf45ca8c	-0.77262187
216	0xbf107f86	-0.56444585
217	0xbf9cae74	-1.2240739
218	0xbf62b9ba	-0.88564646
219	0xbf5aced8	-0.8547187
220	0x3f0e3b1a	0.5555893
221	0x3ebcab24	0.3684932
222	0xbfd7f8e5	-1.6872832
223	0x3e46a3ba	0.19398394
224	0x3d82f3ed	0.063941814
225	0xc0068c3e	-2.1023097
226	0xbe657d7b	-0.22411148
227	0xc00aee07	-2.170778
228	0x3ef401df	0.47657678
229	0x3e8dc549	0.2768958
230	0xc02b549d	-2.6770394
231	0xbe8945f7	-0.2681119
232	0xbf9d7a07	-1.2302865
233	0xc016f359	-2.3586028
234	0xbf4aa452	-0.7915698
235	0x3e44a6db	0.19204275
236	0xbda2957b	-0.079386674
237	0x3e9970fb	0.2996901
238	0xbfc60061	-1.5468866
239	0x3e85ddaf	0.26145694
240	0x3f0de5a9	0.5542856
241	0xbf03c9dd	-0.51479894
242	0xbedf36f5	-0.43596616
243	0xc0072884	-2.1118479
244	0x3d508ca2	0.050915368
245	0x3f1cf1af	0.6130628
246	0xbf880b11	-1.0628377
247	0xbf0ad59f	-0.5423221
248	0x3f11d84d	0.56970674
249	0xbfba8d63	-1.4574398
250	0xbf596938	-0.84926176
251	0xc03999dc	-2.9000158
252	0x3efe5b05	0.49678817
253	0x3f25aa4a	0.64712965
254	0xc00b4baf	-2.1764944
255	0xbdd22e67	-0.10262757

l3.bias f4 [57]
0	0x3e6fa271	0.2340181
1	0xbe3bb1c8	-0.18329537
2	0xbeda48b7	-0.42633602
3	0xbedea394	-0.43484175
4	0x3e62d72a	0.22152391
5	0xbecfcb63	-0.4058486
6	0xbf412b72	-0.7545692
7	0xbf14a27d	-0.5806044
8	0x3e5407aa	0.20706049
9	0xbf21e635	-0.63241893
10	0xbe0ddaa5	-0.13852938
11	0x3c79571d	0.015218523
12	0xbe2aa7e6	-0.1666561
13	0x3ea8fa8b	0.3300365
14	0xbda19e82	-0.07891561
15	0xbde09ee9	-0.1096781
16	0x3e9943c7	0.29934523
17	0x3f2d3cca	0.6767088
18	0xbe85c609	-0.2612765
19	0x3e1c7486	0.15278825
20	0x3e002bed	0.12516756
21	0x3eaccf7a	0.33752042
22	0x3f1590f6	0.5842432
23	0xbb6aa655	-0.0035804708
24	0x3e6b3bde	0.22972056
25	0x3bf38609	0.0074317497
26	0x3f217e3c	0.63083243
27	0x3e64c727	0.22341596
28	0x3f09085a	0.5352837
29	0x3d531615	0.05153473
30	0x3d1206f5	0.035651166
31	0xbe6c29bc	-0.23062795
32	0x3e8a10e1	0.26966003
33	0x3e572f3a	0.21014109
34	0x3eda7615	0.42668214
35	0x3e83e06a	0.25757152
36	0x3ed2d40f	0.41177413
37	0x3f56d0ac	0.8391216
38	0xbef34f03	-0.4752122
39	0xbf133014	-0.57495236
40	0x3e4805a3	0.195334
41	0xbec7a265	-0.38991085
42	0xbe45b6f9	-0.1930808
43	0xbefa17f0	-0.48846388
44	0xbe11c398	-0.1423477
45	0xbeb14dd9	-0.34629706
46	0xbe8374b6	-0.2567498
47	0xbc264653	-0.010148603
48	0xbdcea7bb	-0.10090586
49	0xbebae4ed	-0.36502782
50	0xbe9cdfce	-0.306395
51	0x3dac773c	0.0842118
52	0x3e8e22de	0.27760977
53	0x3e7cb40e	0.2467806
54	0x3ec534a4	0.38516724
55	0x3e900df9	0.2813566
56	0xbcb5cc65	-0.02219219
