Experiment 5 Basic Chatbot/data.pth (torch, 5271 bytes, 6 tensors)

l1.weight f4 [8, 57]
00000000: 41e5 90bd 86e9 51be 0526 e03e 379b 82be
00000010: d3fb cebd a51d f23e 21d1 a43e 4924 763e
00000020: c3d0 0e3f 3fc3 ed3e 80ab 74be 5e58 ae3e
00000030: 606e d53e d314 f53e 6905 16bd a4a7 183e
00000040: 0d01 22be c310 213f 62cf 15be b854 cbbe
00000050: 8f0e 3abe 8453 cbbe 9e4f cbbe 1844 debe
00000060: d2b1 0b3e da84 9fbd b52f 9cbe 4b94 5cbe
00000070: 1c46 f63d a16a d1be 7341 f43e 2405 af3e
00000080: 3555 9f3d eeda d03e 9261 933c b11d d93e
00000090: c06a 51bc ec73 09bd 3ea3 1a3f ca8d fc3e
000000a0: 526c 873e 4065 a93e f5e3 d33e c4e9 06be
000000b0: 09a9 c63e f0e0 81bd 9dd5 0e3f e16d d0bd
000000c0: 40d6 ccbe cc4e 14be 63fb 83bd 06f6 ef3e
000000d0: b7cd 5dbe 4f46 1c3e d375 493e 3de5 b63e
000000e0: 8748 453e c0b6 f73e ab40 373d 6c29 ac3e
000000f0: b0b0 1abd 3ebb f63c bded fc3e c99a c93e
00000100: 23a8 913e b5d1 ca3e 5f3e a63e 44cd abbd
00000110: a997 43be e2a2 1e3e 28fc 78be 0222 2ebe
00000120: 8e20 7abe 2d3a c4bd 0f37 e13e 4e7f 763e
00000130: 42c0 71be a5c0 e53e 17ca 99be 772a d2be
00000140: 4f68 acbe 7dba afbd 900e 39be 8dc0 df3e
00000150: 629e 1bbf c909 a63e 98eb 0ebf a65c 843e
00000160: 782a debd 1358 c93e d533 953e c119 38be
00000170: df67 4e3e 358b 5abe 5fa3 be3e 0f45 843e
00000180: 135f a33e 509a 953d 79cb c63e e522 0c3d
00000190: 3d4a b13e fd83 42be e0b2 0fbe ae4a 853d
000001a0: 0175 40be 5077 413f e87d e03e 6812 053e
000001b0: cca0 c5bb 7c12 a23e b740 6ebe fadf a53e
000001c0: 3e6d d03e 9d37 bb3e 402e 5e3e 6b0a 2ebe
000001d0: c195 073f 41ab 9d3e 00a7 a43e d092 14bf
000001e0: c307 a43e 5557 a23e fcdf a93e 991b c03e
000001f0: 8b1b 8d3e 2472 893e 43f7 b53d 9754 d43e
00000200: ac7d 1abe 9431 4d3e 9910 d43e 8495 14bf
00000210: 8f1a 9cbe 6c90 023f 27c1 273e 4843 0b3f
00000220: ad18 ce3e 06c6 f53d 679a f13e cc21 e33e
00000230: 0969 e5be d0f6 b6be 8e08 fbbd c4fc 2bbe
00000240: 593e 44be 3250 ef3e 8d33 db3d 41b5 ed3e
00000250: 92bb 4abe e441 753e 0825 2a3e 664c 73bd
00000260: 18a6 df3e 8a5f d83e 6e8c d83e cab4 4c3e
00000270: d669 a9be b657 cfbe 7fff 743e 4252 f83c
00000280: cfd7 f13e 9ad5 f3bd b2ab d23e 19f3 963d
00000290: 6828 f53d c384 633e 28b8 c8be e521 4c3e
000002a0: 9afc 423d ac1e a23e 4a36 053e f1f6 9b3e
000002b0: c068 afbe 0673 b4bd a706 9b3e e997 b53e
000002c0: f873 163f 2b6f 8dbe 357f a0bd f9f2 0bbf
000002d0: 95ad 0ebc d16e c23e bdd2 60be 7a82 83be
000002e0: d882 edbe c336 8bbe b7cf c2bd e599 513e
000002f0: 42d0 df3e f157 be3c 7cca b23e 46ef ab3e
00000300: 81fe ad3e 3e30 d23e 22a6 8a3e 2e61 77be
00000310: cf21 263e 4ac3 3abe cfc2 e4be afd8 16bd
00000320: 3036 91be b49f cf3e fa31 95be 3db4 ad3e
00000330: 4806 c8bd ef21 8fbe b02d 3c3c 7543 1bbe
00000340: fd9f d6bc 5ee3 36bf f846 03be 4b50 d43d
00000350: c435 3ebe 1b43 bf3e 579b f7bd 910f 61be
00000360: 923c bbbd 9e9c 6bbe 9601 96be 250d f43e
00000370: 165c 5b3e cb46 9f3e fad5 333d 5879 1dbe
00000380: c664 ef3c 2c28 c6bc 66fd d1bd 2e7b ca3e
00000390: f694 27be 34a5 583f 6d1e 7d3e 3736 b3be
000003a0: ac77 163e 93d6 c7be 2b40 dc3e e6c4 883e
000003b0: 5cb1 ac3e 7d7a c03e a271 69be 9250 86be
000003c0: 2bbc 373f ef8a 2b3d f6b6 493f ea33 f0bd
000003d0: 6510 26be c709 c2be c76d 083f bec2 c6be
000003e0: 1d4a a3bc a6c0 c7be 5caa aabe baa7 0cbf
000003f0: e33f c13d 58fe b8be a011 563f f7aa 863f
-0.07074977 -0.20499238 0.43779007 -0.25509045 -0.101066254 0.47288242 0.32190803 0.24037279
0.55787295 0.46438023 -0.23893547 0.34051794 0.41685772 0.4786745 -0.036626253 0.149077
-0.15820713 0.629162 -0.14629892 -0.39713073 -0.18169616 -0.39712155 -0.3970918 -0.43411326
0.13642052 -0.07789011 -0.30505148 -0.21540944 0.12025091 -0.40901664 0.47706184 0.3418361
0.07779924 0.4079203 0.017990861 0.42405465 -0.012781799 -0.033557817 0.6040534 0.49326926
0.2644983 0.3308506 0.41384855 -0.13175112 0.3880084 -0.063417315 0.557947 -0.10177208
-0.4000721 -0.14483184 -0.064444326 0.46867388 -0.21660505 0.15261196 0.19673853 0.3572177
0.19265948 0.48381615 0.044739407 0.33625352 -0.03776616 0.03011858 0.4940013 0.39375904
0.2844859 0.3961312 0.3246946 -0.08388761 -0.19100823 0.15491822 -0.2431494 -0.1700516
-0.24426481 -0.09581409 0.4398732 0.24072 -0.23608497 0.4487354 -0.30036995 -0.41048023
-0.3367333 -0.08580492 -0.18071961 0.43701592 -0.6078855 0.3242934 -0.5582824 0.25851935
-0.10847944 0.39325008 0.29141107 -0.17978574 0.20156811 -0.21342166 0.37234017 0.25833938
0.31908473 0.073048234 0.38827112 0.034212966 0.34626952 -0.18995662 -0.14033079 0.06508385
-0.18794633 0.7557268 0.4384606 0.12995303 -0.0060311314 0.31654727 -0.23266874 0.32397443
0.40708345 0.36565867 0.2169733 -0.16996162 0.5296288 0.3079472 0.3215866 -0.5803652
0.32037172 0.31707254 0.331787 0.37521055 0.27560076 0.26844895 0.08885052 0.41470787
-0.15087003 0.20038444 0.41418913 -0.5804064 -0.30489013 0.5100162 0.16382276 0.5439954
0.402532 0.120006606 0.47188112 0.44361722 -0.44806698 -0.35735178 -0.12257491 -0.16795641
-0.19164409 0.46740872 0.10703192 0.46427348 -0.19798115 0.23950917 0.16615689 -0.05939903
0.43681407 0.4226039 0.4229464 0.1999084 -0.3308856 -0.40496606 0.23925589 0.030312661
0.4723496 -0.11905976 0.41146618 0.07370586 0.119705975 0.22218613 -0.39203 0.19934805
0.04760418 0.31664026 0.13008991 0.3046184 -0.34259605 -0.088110015 0.30278513 0.3546746
0.58770704 -0.27623877 -0.07836763 -0.5466762 -0.008708377 0.3797517 -0.2195539 -0.25685483
-0.46388888 -0.27190217 -0.09512275 0.20468862 0.43713576 0.023235293 0.34920108 0.3358099
0.33983234 0.4105243 0.27079874 -0.24158165 0.16223834 -0.1823856 -0.44679877 -0.03682774
-0.28361654 0.4055153 -0.29139692 0.33926573 -0.09766823 -0.27955577 0.011485502 -0.15162452
-0.026199335 -0.71440685 -0.12820041 0.10366877 -0.18575197 0.37355885 -0.120901756 -0.21978594
-0.09142412 -0.23008963 -0.29298085 0.47666278 0.21421847 0.31108698 0.043905236 -0.1537832
0.029222857 -0.024189077 -0.1025341 0.39547104 -0.16365418 0.8462708 0.24718638 -0.350023
0.14694089 -0.39030895 0.43017706 0.26712722 0.33729064 0.3759345 -0.22797254 -0.26233345
0.71771497 0.041880544 0.787948 -0.11728652 -0.16217192 -0.37898085 0.53292507 -0.38820451
-0.0199328 -0.39014167 -0.333331 -0.5494343 0.094360135 -0.3613155 0.83620644 1.0520924

l1.bias f4 [8]
00000000: 9951 cb3e f4e7 4f3f c893 143f 4f2c 6f3f
00000010: 57d4 c73e 4430 1a3f 0f8f 243f 652b 273f
0.39710692 0.8121331 0.58037996 0.93426985 0.3902919 0.602299 0.6428079 0.6530059

l2.weight f4 [8, 8]
00000000: d88a 573f 197f 7f3f 5860 f0be b612 473f
00000010: faf0 adbf c711 003f 0b31 9fbf 1739 6e3f
00000020: dae8 283f 0465 debe 5391 8f3f db99 703e
00000030: 3c68 e6be c5cb 8e3f 9b40 9b3f ef98 673d
00000040: 61da 443f 0124 a03f 425c 2ebd 7837 b33f
00000050: a4e5 0abe de3a 5bbe e4a5 80be 2095 803f
00000060: a333 ff3d 2596 933d 05d3 7a3c 5631 d93d
00000070: dff2 733c 8591 81be de81 f93d cc21 98be
00000080: b612 65bf 75a5 e93e 3bfb b63f 4e67 153f
00000090: 6d00 47bf b064 afbe 98c2 4f3f b5b9 193f
000000a0: 04da a63f 6aa8 443d d60a bd3e 3a8f 9fbe
000000b0: 4618 0cbe b333 5a3f 39e1 583e 0319 9a3e
000000c0: 436d b53e b899 173f a3ca b73e bd0b 56bf
000000d0: 162a d53f ed98 27bf cd01 fc3d 20b9 353f
000000e0: 35eb adbe eb43 3a3f 8658 0a3f f197 cd3b
000000f0: cd9f 8f3e 978d 56bf 6adb 75bf fddc 8b3f
0.84196234 0.9980331 -0.46948504 0.77762926 -1.3589165 0.50027126 -1.2436842 0.9305586
0.65980303 -0.43436444 1.1216224 0.23496191 -0.450014 1.1155936 1.2129091 0.056542333
0.7689572 1.2510988 -0.042568453 1.4001303 -0.13564163 -0.21409175 -0.25126565 1.0045509
0.12461021 0.07206372 0.0153091 0.10605113 0.014889448 -0.25306335 0.12182973 -0.29713285
-0.89481676 0.45634046 1.429542 0.58360755 -0.77735025 -0.34256506 0.811563 0.6004899
1.3035283 0.048012175 0.3692233 -0.3116396 -0.13681135 0.85235137 0.21179666 0.30097207
0.35434923 0.5921893 0.35896787 -0.8361166 1.6653469 -0.6546772 0.12305031 0.70985603
-0.3396851 0.72759885 0.54041326 0.0062742163 0.28051606 -0.838098 -0.96037924 1.0926815

l2.bias f4 [8]
00000000: fa02 663d 7e5b 9f3e adaf de3e 1cc7 86be
00000010: c3c5 ff3e ab0d 25bf 621c 273e b7c5 85be
0.056155182 0.3112449 0.43493405 -0.26323783 0.49955568 -0.6447398 0.16319421 -0.26127407

l3.weight f4 [7, 8]
00000000: 2c70 bcbe c168 373f ac2e 56bf f733 453c
00000010: db75 22be 9ff6 fb3e 4383 9bbf 7e77 1fbf
00000020: e10d 98bf 6717 20bf d206 0fbf 8089 15be
00000030: 6342 0cbf f878 1fbf 4ad6 803f 4bbc 36bf
00000040: 1c84 7a3f 2a40 4abe 960a 133f 5509 2dbb
00000050: ec0b d4be 6483 d93e a9f0 b6bf 885b c4bf
00000060: e34e 73bf 522b 083f ee69 083f 22ae 7bbe
00000070: 0730 393f 1d32 a1bf 4af7 9dbf 88c9 ccbf
00000080: 46f8 73bf f33e 08bf 8229 f43e 50a8 65bc
00000090: 4f34 60bf ee18 8ebf 5b3f 853e c0cf 693f
000000a0: 9f4b c1be 1aed 803d 1007 2a3e 3bfb cbbd
000000b0: fb06 1abe 7a29 e83e 559b 0c3e b851 11bf
000000c0: 2e1e 063f abe1 39bf 8c10 da3d 1bda 7d3d
000000d0: 4035 c83e 14c4 86bf c21b c0be acf3 353f
-0.3680433 0.71644217 -0.83664966 0.012036315 -0.15865271 0.49211594 -1.2149433 -0.62291706
-1.1879236 -0.6253571 -0.5586978 -0.14603233 -0.547888 -0.6229396 1.0065396 -0.7138106
0.9785783 -0.19751039 0.5743803 -0.0026403267 -0.41415346 0.42483056 -1.4292194 -1.5340433
-0.95042247 0.531911 0.53286636 -0.24578145 0.7233891 -1.2593418 -1.2341092 -1.5999002
-0.9530071 -0.5322105 0.47687918 -0.01401718 -0.87579817 -1.1101358 0.260249 0.91332626
-0.37753007 0.062952235 0.16604257 -0.09960028 -0.15041725 0.45344144 0.1373113 -0.5676532
0.523898 -0.72609967 0.10647687 0.06197558 0.39103127 -1.0528588 -0.37521178 0.7107494

l3.bias f4 [7]
00000000: 663d 89bd 3006 ad3e 80ae 17be f511 0a3f
00000010: 199f 77bd b662 16bf 8605 9bbe
-0.06701164 0.33793783 -0.1481266 0.5393365 -0.06045446 -0.5874437 -0.30277652
