Experiment 5 Basic Chatbot/data_new_intent.pth (torch, 14103 bytes, 6 tensors)

l1.weight f4 [8, 176]
0.42420024 0.2476971 0.20291077 -0.39423728 0.15387262 0.3321892 1.0216027 -0.34534344
0.42071348 0.3133745 0.013367619 -0.26544985 0.66475534 0.6179972 0.7394695 -0.7364731
0.5147449 0.17252117 -0.48433307 0.022233976 0.42196 -0.49083754 0.16926931 0.8208623
-0.3702482 0.53326875 -0.1745963 -0.0062378496 -0.9585126 0.5076078 -0.38540116 -0.67522347
-0.33615494 0.3882873 -0.014831501 0.12035647 -0.20215733 0.45647714 0.18017276 0.13534364
-0.36566475 0.31572467 -0.058241747 -0.20576686 0.5548092 0.00431004 0.87048036 0.2062424
0.39630485 -0.49313414 0.5049495 0.03434704 -0.46213055 0.78828585 0.6636859 -0.56946677
0.32682508 0.76244926 0.41601336 0.016423505 0.04427505 -0.4553868 -0.7553562 0.59149134
0.1629994 0.47610474 -0.44839156 -0.43355533 0.116445735 0.86115456 -0.16840322 -0.36910486
0.4156425 0.5176218 -0.09310596 0.17306432 -0.1276092 0.113113366 -0.421571 -0.36992496
-0.29228824 -0.36929616 -0.36987734 -0.4327414 0.23121181 -0.22270508 0.18385775 0.61146766
-0.05409944 0.678488 0.2586542 0.2287704 0.6384726 0.334135 0.024308119 0.20494501
-0.015593831 0.13381806 -0.0601929 -0.6087861 0.89223367 -0.5486644 -0.18770841 0.46663606
0.17535606 -0.090036064 0.5845986 -0.20122088 0.28286678 0.06450318 -0.15724322 0.61219555
0.65087503 -0.13988811 0.6025061 -0.004822861 0.5756023 0.25832784 0.2974552 0.18877864
-0.33326378 0.54994786 0.0813244 0.29816988 0.90815604 0.6456006 -0.6150467 -0.02925321
0.48679253 -0.05386996 -0.36074078 0.2149138 -0.23711614 0.88817924 0.52449167 0.20862228
0.6596765 0.06257142 0.42323154 -0.04664661 0.26952344 -0.046560965 0.7196559 -0.017015582
0.0031125483 0.846029 0.53098184 0.20069477 0.7337409 -0.57767993 0.42448366 0.09804205
-0.034359973 -0.37121475 -0.2354161 0.35391992 -0.35681292 0.9269067 0.17612498 -0.4581045
-0.5482244 -0.72878724 -0.98446953 -0.26718596 0.40583485 -0.021449476 0.3887553 0.4345962
0.20273058 0.114245296 0.25044018 0.6129734 0.16326979 0.23657236 -0.46007076 -0.56970483
0.3075917 -0.013625511 0.11159662 0.19490725 -0.34237278 0.82726884 0.11618347 0.21987611
-0.27797094 0.3043664 -0.5420294 0.6396425 0.5528912 -0.03089083 0.06653244 -0.24110863
0.4165276 0.31902534 0.9156773 -0.87094384 0.21359643 0.2833441 -0.27610594 -0.095511936
-0.466662 0.05020159 0.19023149 0.5850647 -0.41728723 0.17565672 -0.046196375 0.9459341
-0.27500218 0.058932114 0.63667107 -0.37223738 0.39043012 0.5715156 -0.5907242 -0.20083256
0.27953348 0.4662411 0.14171895 -0.25926685 0.46492293 -0.9272515 -0.0014791185 -0.4581673
-0.98077637 0.6029114 -0.08796322 0.4461677 -0.28078693 0.04321408 0.07749893 1.0250046
0.8164304 -0.7739835 -0.5303129 -0.5743251 0.44018656 -0.6582847 -0.5394081 -0.009785771
-0.6724379 0.43172568 0.5516456 0.26161125 -0.36430323 0.8245931 0.36074615 -0.4769295
-0.1959713 -0.93670684 0.18538232 0.39694697 0.87968415 0.41089344 0.60265225 0.4639483
00000000: c630 d93e 4fa4 7d3e d7c7 4f3e 78d9 c9be
00000010: c990 1d3e b414 aa3e e1c3 823f dbd0 b0be
00000020: c267 d73e 9f72 a03e dc03 5b3c 0be9 87be
00000030: 682d 2a3f 1135 1e3f e04d 3d3f 8089 3cbf
00000040: 52c6 033f 64a9 303e 81fa f7be 0724 b63c
00000050: 240b d83e 0f4f fbbe ef54 2d3e 0824 523f
00000060: 2c91 bdbe 4d84 083f 5fc9 32be e066 ccbb
00000070: 1561 75bf 96f2 013f 4d53 c5be 72db 2cbf
00000080: 801c acbe 98cd c63e d3ff 72bc 747d f63d
00000090: 5502 4fbe 5fb7 e93e 357f 383e 8697 0a3e
000000a0: 6938 bbbe aaa6 a13e e68e 6ebd 8cb4 52be
000000b0: fa07 0e3f 3c3b 8d3b cdd7 5e3f 3531 533e
000000c0: 78e8 ca3e 147c fcbe 5f44 013f 7baf 0c3d
000000d0: 609c ecbe 1acd 493f 52e7 293f 93c8 11bf
000000e0: 9e55 a73e e02f 433f b4ff d43e 968a 863c
000000f0: c159 353d 7528 e9be 065f 41bf fa6b 173f
00000100: 51e9 263e 00c4 f33e 9493 e5be f7fa ddbe
00000110: 1a7b ee3d a074 5c3f e571 2cbe 50fb bcbe
00000120: 18cf d43e dd82 043f 56ae bebd c637 313e
00000130: fcab 02be fba7 e73d 27d8 d7be ce66 bdbe
00000140: cea6 95be 6314 bdbe 9060 bdbe 4890 ddbe
00000150: cac2 6c3e cd0c 64be 3545 3c3e 2589 1c3f
00000160: 6097 5dbd 64b1 2d3f 536e 843e ca42 6a3e
00000170: f172 233f be13 ab3e d221 c73c 1bdd 513e
00000180: 457d 7fbc 9a07 093e d58c 76bd 68d9 1bbf
00000190: 6d69 643f 4575 0cbf a236 40be ecea ee3e
000001a0: 8a90 333e d464 b8bd 41a8 153f d90c 4ebe
000001b0: ead3 903e 3e1a 843d 5e04 21be d9b8 1c3f
000001c0: bf9f 263f d43e 0fbe d73d 1a3f 1709 9ebb
000001d0: ac5a 133f 8c43 843e 0c4c 983e 304f 413e
000001e0: 8da1 aabe 62c9 0c3f 688d a63d b9a9 983e
000001f0: ea7c 683f 1546 253f b373 1dbf 6ea4 efbc
00000200: df3c f93e bfa6 5cbd 04b3 b8be 5d12 5c3e
00000210: 93ce 72be b75f 633f 1645 063f 14a1 553e
00000220: 8fe0 283f 7225 803d ceb1 d83e 8410 3fbd
00000230: fafe 893e b6b6 3ebd 5e3b 383f 4364 8bbc
00000240: e5fb 4b3b 5b95 583f 6dee 073f ee82 4d3e
00000250: 72d6 3b3f d5e2 13bf ec55 d93e 45ca c83d
00000260: 0bbd 0cbd dc0f bebe eb10 71be fe34 b53e
00000270: 2fb0 b6be c249 6d3f 1b5a 343e ac8c eabe
00000280: 6f58 0cbf cd91 3abf 3206 7cbf 99cc 88be
00000290: 96c9 cf3e d0b6 afbc ef0a c73e 6583 de3e
000002a0: 9b98 4f3e 70f9 e93d b239 803e d3eb 1c3f
000002b0: 3230 273e 0640 723e 658e ebbe 2dd8 11bf
000002c0: a97c 9d3e 893d 5fbc c58c e43d c495 473e
000002d0: 7c4b afbe e4c7 533f 99f1 ed3d 3427 613e
000002e0: 3552 8ebe ead5 9b3e 70c2 0abf 9cbf 233f
000002f0: 478a 0d3f c40e fdbc 2942 883d 2ee5 76be
00000300: 1b43 d53e 4a57 a33e d469 6a3f 2df6 5ebf
00000310: 06b9 5a3e 7a12 913e c25d 8dbe c39b c3bd
00000320: 52ee eebe 2fa0 4d3d 0bcc 423e cdc6 153f
00000330: aca6 d5be 5bdf 333e 6938 3dbd bd28 723f
00000340: 16cd 8cbe cd62 713d e0fc 223f e695 bebe
00000350: 75e6 c73e d94e 123f b339 17bf 0da7 4dbe
00000360: 031f 8f3e 27b7 ee3e c61e 113e a0be 84be
00000370: 610a ee3e 5b60 6dbf fbde c1ba e894 eabe
00000380: 2914 7bbf 6758 1a3f 1026 b4bd 1870 e43e
00000390: 4ec3 8fbe 3f01 313d c2b7 9e3d 5a33 833f
000003a0: 9501 513f c823 46bf 96c2 07bf f806 13bf
000003b0: 2260 e13e 5985 28bf a616 0abf 8054 20bc
000003c0: e424 2cbf 260b dd3e a538 0d3f e9f1 853e
000003d0: f485 babe 8918 533f b8b3 b83e 1a30 f4be
000003e0: b3ac 48be 05cc 6fbf ddd4 3d3e a23c cb3e
000003f0: fb32 613f a060 d23e 6b47 1a3f a28a ed3e

l1.bias f4 [8]
0.36954904 0.6671439 1.5011545 0.5024875 0.6037046 0.54402924 0.45943537 0.79457176
00000000: 8835 bd3e f1c9 2a3f d525 c03f 05a3 003f
00000010: 628c 1a3f 8045 0b3f 1d3b eb3e 0e69 4b3f

l2.weight f4 [8, 8]
1.6889815 -1.530088 0.08553022 1.0682428 0.09926019 0.8152769 2.271484 0.64418507
-0.22486219 -1.1858743 2.0614018 0.8058366 -0.9926598 0.86497194 -0.8912711 -0.17059423
-1.1765052 0.32464734 1.6569624 -1.5031762 2.2279437 0.06665306 1.7996131 0.3892607
1.2467998 0.4908294 -0.39140958 -0.61718786 -0.30266166 1.9277158 -0.05819176 0.5146758
1.5183988 1.1380014 -0.278779 2.2178383 0.3947728 0.36431193 -0.031982522 0.49326023
-0.29933643 0.9556732 1.1760873 0.6852441 -1.524226 -1.4116993 -0.55512995 1.9791609
-0.10238306 1.6396885 -0.07709625 -0.2935789 -0.7794198 1.1762507 -0.5674122 1.0060318
1.4447412 0.21313837 1.0630041 -0.13868725 1.3916963 -0.12838256 -0.1905107 -1.2836549
00000000: 8c30 d83f ecd9 c3bf 782a af3d 2ebc 883f
00000010: ed48 cb3d fdb5 503f fe5f 1140 50e9 243f
00000020: 4642 66be bbca 97bf 02ee 0340 4f4b 4e3f
00000030: f41e 7ebf cd6e 5d3f 582a 64bf 41b0 2ebe
00000040: b997 96bf 2d38 a63e 5817 d43f 1468 c0bf
00000050: a196 0e40 6681 883d b959 e63f 2e4d c73e
00000060: 2397 9f3f fe4d fb3e d666 c8be 0600 1ebf
00000070: 78f6 9abe 64bf f63f 7c5a 6ebd cbc1 033f
00000080: e45a c23f 08aa 913f 1fbc 8ebe 10f1 0d40
00000090: a91f ca3e 1887 ba3e 1b00 03bd 9b8c fc3e
000000a0: a042 99be 00a7 743f 078a 963f 286c 2f3f
000000b0: d619 c3bf 90b2 b4bf ff1c 0ebf 2555 fd3f
000000c0: 36ae d1bd 50e1 d13f a4e4 9dbd f94f 96be
000000d0: 0e88 47bf 628f 963f ed41 11bf a6c5 803f
000000e0: 48ed b83f f240 5a3e 8510 883f 0804 0ebe
000000f0: 1b23 b23f b876 03be 3d15 43be ce4e a4bf

l2.bias f4 [8]
-0.29692894 1.0546168 1.4416558 -0.09864621 -0.45397666 0.368619 0.6043887 -0.42288366
00000000: 1207 98be affd 863f 2d88 b83f 0607 cabd
00000010: a16f e8be a1bb bc3e 38b9 1a3f 3584 d8be

l3.weight f4 [57, 8]
-0.12600629 -0.14450471 0.33630508 -1.872435 -0.25497335 -0.0120645445 -1.7636751 -0.20755
-0.92852885 -1.8017285 0.17441493 -0.27032763 0.059425626 -1.6362352 -0.56449944 0.35524774
-2.3475363 0.071736656 0.26976496 -1.2160422 -0.7627795 0.07919339 -0.8450155 0.44370595
0.118813634 -0.39650986 -1.7392387 -0.36911094 0.19185005 0.39392963 -0.5318678 -1.6363143
-0.88802 -2.1298273 0.029856592 -0.5571611 0.29481095 0.09042918 -0.12372356 -0.5989985
-0.7347638 0.53271 -0.08153079 -1.9527627 -0.34829065 0.52415025 -2.468545 -0.268888
-0.33610022 -0.42722774 -0.019172117 -2.811865 0.120929256 0.3781159 -0.42566147 -0.8571213
-0.002006603 -2.5936763 0.16424738 -0.5458698 -0.42110047 0.10030575 -0.09142074 -0.52584016
-0.9818245 -0.3361663 -1.9613723 -0.5704064 0.3848496 0.47960994 0.27093545 -2.334926
0.29065332 0.4133944 -0.14332092 -0.4080593 -0.45818216 -1.2702532 -1.852931 -0.12215097
0.058187567 -1.4574507 0.24257973 -1.4183587 0.18665089 -1.3951799 -2.463981 0.27536994
-0.20437571 0.39175057 -0.92502874 -1.0454078 0.061399948 0.25488815 -0.23195611 -2.5774777
0.31881306 -1.672858 -0.2891291 0.12049339 0.1431274 -2.2593966 -0.34577158 -0.28503773
-0.7286693 0.46517146 0.16285713 -0.27904895 -1.1100096 -0.5603878 -0.8146045 0.16330867
-0.39740887 -1.298148 0.059254616 0.12354302 -0.65642625 -0.50963205 0.4362509 -0.4422885
-2.647226 -0.006016296 0.021110583 -0.37637547 -0.33404863 -0.0029391965 0.32105047 -0.6699468
0.20220263 0.3748123 -0.14065777 -2.7486904 -0.4904301 -0.0008755181 -3.4241762 0.12259935
0.120710865 -0.59751374 0.44847217 -2.2874193 -0.49817127 -1.6392245 -1.6307389 0.2544643
-0.6131938 0.17986299 0.47546023 -2.0454004 -0.89105314 -1.8067015 -2.0375216 0.44268173
0.101922885 -0.099554956 -0.13556243 -0.0019438309 -0.33456722 -2.415906 -0.46095377 -0.12480477
0.2207899 0.059236474 0.15364297 0.094922826 -0.92916745 -0.9181761 -0.59642094 -1.1324964
0.3416401 -1.5160749 -0.09972423 0.06359054 -0.06343916 -0.25421688 -0.53366655 -1.1295083
-0.50127274 -0.45761144 -0.55093753 0.32686275 0.049375195 -0.59262127 0.30498484 -0.8707855
-0.7319001 0.28663108 -0.20022824 0.011803031 -0.46459833 -0.30586874 0.16874339 -0.96138895
0.16749388 -0.08325505 -0.76987606 -0.2770989 -0.32370508 -0.2187891 0.112963334 -0.7181288
-0.43516833 -0.18263629 -1.0678213 -0.063325375 -0.06716931 0.0054786624 0.6353224 -2.0243368
-0.7107093 0.13068092 0.1877969 -0.2839712 -1.2567071 0.07168872 0.26929167 -2.0075865
-1.1776644 -1.2114749 -0.24251609 0.5666179 0.20284934 -0.6058001 0.32115263 -2.5133815
-0.35610333 -0.063054256 -0.16188559 -0.6087953 0.024526777 -0.29039502 -0.49324742 -0.20749666
0.26591828 -0.41295695 -1.8547937 0.40410614 0.38984042 -2.3756306 0.15975799 -2.1231217
-0.62225395 0.23972064 -1.4453236 -2.0285728 0.24766955 0.24697937 -0.44286814 -0.36369437
-0.184868 0.62593037 -0.3784463 -1.2873987 0.080974616 -0.14826865 -1.2790257 -0.64943093
00000000: cb07 01be 0bf9 13be 2e30 ac3e f3ab efbf
00000010: de8b 82be 5eaa 45bc 1bc0 e1bf fd87 54be
00000020: 11b4 6dbf 0a9f e6bf d499 323e 6268 8abe
00000030: 4968 733d 2870 d1bf 0983 10bf 08e3 b53e
00000040: 093e 16c0 abea 923d a21e 8a3e 45a7 9bbf
00000050: 8445 43bf 2530 a23d f052 58bf 6d2d e33e
00000060: 9054 f33d 5703 cbbe 609f debf 1cfc bcbe
00000070: 5774 443e 25b1 c93e 7d28 08bf bf72 d1bf
00000080: 4755 63bf 174f 08c0 d095 f43c 1ca2 0ebf
00000090: 76f1 963e ef32 b93d c762 fdbd f757 19bf
000000a0: 7b19 3cbf af5f 083f 9df9 a6bd 21f4 f9bf
000000b0: 2753 b2be b62e 063f a4fc 1dc0 b0ab 89be
000000c0: 5415 acbe 98bd dabe d80e 9dbc 99f5 33c0
000000d0: c2a9 f73d 6898 c13e 4df0 d9be 4d6c 5bbf
000000e0: 3681 03bb cbfe 25c0 7730 283e 20be 0bbf
000000f0: 7b9a d7be 1a6d cd3d cc3a bbbd 769d 06bf
00000100: da58 7bbf fd1d acbe 3f0e fbbf 2706 12bf
00000110: 020b c53e 6f8f f53e 0db8 8a3e 6d6f 15c0
00000120: 83d0 943e 6ea8 d33e b8c2 12be 26ed d0be
00000130: da96 eabe a897 a2bf d82c edbf 4a2a fabd
00000140: 1656 6e3d bf8d babf d266 783e c78c b5bf
00000150: 6921 3f3e 4195 b2bf ddb1 1dc0 4afd 8c3e
00000160: de47 51be 8893 c83e afce 6cbf eccf 85bf
00000170: 837e 7b3d b380 823e e785 6dbe 65f5 24c0
00000180: 773b a33e 3620 d6bf bb08 94be 3dc5 f63d
00000190: fd8f 123e f499 10c0 f908 b1be 77f0 91be
000001a0: 128a 3abf f42a ee3e 05c4 263e 81df 8ebe
000001b0: cb14 8ebf 9375 0fbf ec89 50bf 633a 273e
000001c0: 2d79 cbbe b729 a6bf f8b4 723d 1f04 fd3d
000001d0: 8d0b 28bf 3f77 02bf 475c df3e a373 e2be
000001e0: 276c 29c0 5924 c5bb 1af0 ac3c 49b4 c0be
000001f0: 6c08 abbe 899f 40bb ba60 a43e a281 2bbf
00000200: 350e 4f3e 66e7 bf3e 9708 10be 8bea 2fc0
00000210: a719 fbbe 0683 65ba b425 5bc0 5e15 fb3d
00000220: 4237 f73d a9f6 18bf 259e e53e 1465 12c0
00000230: 4e10 ffbe 1cd2 d1bf 0dbc d0bf 2549 823e
00000240: 45fa 1cbf 012e 383e 866f f33e d7e7 02c0
00000250: 0f1c 64bf ff41 e7bf c166 02c0 2ea7 e23e
00000260: f2bc d03d 78e3 cbbd e1d0 0abe 24c8 feba
00000270: 654c abbe 349e 1ac0 2202 ecbe a599 ffbd
00000280: bf16 623e f2a1 723d 9554 1d3e e666 c23d
00000290: ebdd 6dbf 970d 6bbf 0baf 18bf a4f5 90bf
000002a0: 74eb ae3e be0e c2bf 383c ccbd c23b 823d
000002b0: 64ec 81bd b728 82be 5f9e 08bf ba93 90bf
000002c0: 6953 00bf 0c4c eabe 3e0a 0dbf 8e5a a73e
000002d0: a53d 4a3d 07b6 17bf f926 9c3e cceb 5ebf
000002e0: ce5d 3bbf 4fc1 923e a208 4dbe 8061 413c
000002f0: d5df edbe d49a 9cbe 11cb 2c3e 961d 76bf
00000300: 8483 2b3e a081 aabd 9916 45bf e8df 8dbe
00000310: acbc a5be 400a 60be 5259 e73d 4ad7 37bf
00000320: 62ce debe 0205 3bbe 5eae 88bf bcb0 81bd
00000330: 1090 89bd 5a86 b33b 7da4 223f bc8e 01c0
00000340: 0bf1 35bf 38d1 053e d54d 403e ac64 91be
00000350: c7db a0bf 89d1 923d 99e0 893e 4c7c 00c0
00000360: b5bd 96bf 9c11 9bbf 2356 78be df0d 113f
00000370: bdb7 4f3e b715 1bbf 1e6e a43e 3edb 20c0
00000380: 2d53 b6be 9722 81bd 56c5 25be 02da 1bbf
00000390: 61ec c83c a8ae 94be ed8a fcbe 017a 54be
000003a0: 7126 883e 186f d3be e169 edbf 00e7 ce3e
000003b0: 2a99 c73e 550a 18c0 9997 233e 3ae1 07c0
000003c0: 094c 1fbf 5479 753e 5d00 b9bf 23d4 01c0
000003d0: 169d 7d3e 29e8 7c3e 9dbf e2be 2636 babe
000003e0: 094e 3dbe f93c 203f b7c3 c1be 7bc9 a4bf
000003f0: 05d6 a53d bdd3 17be 1db7 a3bf 1b41 26bf

l3.bias f4 [57]
-0.2534008 -0.33278698 -0.110077955 -0.01583769 -0.07866277 -0.3766284 0.40291032 0.0699429
0.32362485 -0.01050416 -0.1934205 0.2271464 0.04159692 -0.2142541 -0.17468856 0.18816859
0.09998376 -0.42045215 -0.35994655 0.35287085 -0.011398266 -0.19480592 -0.2205935 -0.50503176
-0.23281942 -0.33740336 0.16056624 -0.24622121 0.37423554 -0.10295367 0.2357467 0.18557803
-0.018162778 0.11751333 0.3477011 -0.28163284 0.065044746 -0.041805793 -0.6092736 0.15767398
0.026948702 -0.12700956 -0.13470832 0.195047 0.019574663 -0.1927717 0.53588045 0.4898439
-0.16002582 0.51469153 0.5944913 0.8164866 0.0366037 -0.13609499 -0.40781665 -0.21241343
0.13175598
00000000: c0bd 81be 0e63 aabe 8d70 e1bd 0bbe 81bc
00000010: f219 a1bd 70d5 c0be 434a ce3e 393e 8f3d
00000020: 28b2 a53e a419 2cbc 0610 46be 1199 683e
00000030: 8861 2a3d 6d65 5bbe 8fe1 32be 44af 403e
00000040: 49c4 cc3d 8145 d7be ea4a b8be 7dab b43e
00000050: cbbf 3abc 347b 47be 43e3 61be c349 01bf
00000060: 3768 6ebe 22c0 acbe 7a6b 243e 6a21 7cbe
00000070: cd9b bf3e 60d9 d2bd 9567 713e 2b08 3e3e
00000080: 1bca 94bc d4aa f03d e105 b23e 2e32 90be
00000090: 2e36 853d 8d3c 2bbd 5bf9 1bbf 4a75 213e
000000a0: 86c3 dc3c cb0e 02be faf0 09be 67ba 473e
000000b0: 0b5b a03c f265 45be 762f 093f d2cc fa3e
000000c0: cfdd 23be d3c2 033f 9530 183f 4405 513f
000000d0: c3ed 153d 7c5c 0bbe 58cd d0be e882 59be
000000e0: 0aeb 063e
